…
ywidgets==7.7.1 found, needs ipywidgets>=8\nRun `pip install -U ipywidgets`, then restart the notebook server for rich notebook output.\n2024-07-08 06:48:05,987\tINFO util.py:124 -- Outdated packages:\n  ipywidgets==7.7.1 found, needs ipywidgets>=8\nRun `pip install -U ipywidgets`, then restart the notebook server for rich notebook output.\n","output_type":"stream"},{"name":"stdout","text":"Overriding model.yaml nc=80 with nc=1\n\n                   from  n    params  module                                       arguments                     \n  0                  -1  1       464  ultralytics.nn.modules.conv.Conv             [3, 16, 3, 2]                 \n  1                  -1  1      4672  ultralytics.nn.modules.conv.Conv             [16, 32, 3, 2]                \n  2                  -1  1      7360  ultralytics.nn.modules.block.C2f             [32, 32, 1, True]             \n  3                  -1  1     18560  ultralytics.nn.modules.conv.Conv             [32, 64, 3, 2]                \n  4                  -1  2     49664  ultralytics.nn.modules.block.C2f             [64, 64, 2, True]             \n  5                  -1  1     73984  ultralytics.nn.modules.conv.Conv             [64, 128, 3, 2]               \n  6                  -1  2    197632  ultralytics.nn.modules.block.C2f             [128, 128, 2, True]           \n  7                  -1  1    295424  ultralytics.nn.modules.conv.Conv             [128, 256, 3, 2]              \n  8                  -1  1    460288  ultralytics.nn.modules.block.C2f             [256, 256, 1, True]           \n  9                  -1  1    164608  ultralytics.nn.modules.block.SPPF            [256, 256, 5]                 \n 10                  -1  1         0  torch.nn.modules.upsampling.Upsample         [None, 2, 'nearest']          \n 11             [-1, 6]  1         0  ultralytics.nn.modules.conv.Concat           [1]                           \n 12                  -1  1    148224  ultralytics.nn.modules.block.C2f             [384, 128, 1]                 \n 13                  -1  1         0  torch.nn.modules.upsampling.Upsample         [None, 2, 'nearest']          \n 14             [-1, 4]  1         0  ultralytics.nn.modules.conv.Concat           [1]                           \n 15                  -1  1     37248  ultralytics.nn.modules.block.C2f             [192, 64, 1]                  \n 16                  -1  1     36992  ultralytics.nn.modules.conv.Conv             [64, 64, 3, 2]                \n 17            [-1, 12]  1         0  ultralytics.nn.modules.conv.Concat           [1]                           \n 18                  -1  1    123648  ultralytics.nn.modules.block.C2f             [192, 128, 1]                 \n 19                  -1  1    147712  ultralytics.nn.modules.conv.Conv             [128, 128, 3, 2]              \n 20             [-1, 9]  1         0  ultralytics.nn.modules.conv.Concat           [1]                           \n 21                  -1  1    493056  ultralytics.nn.modules.block.C2f             [384, 256, 1]                 \n 22        [15, 18, 21]  1    751507  ultralytics.nn.modules.head.Detect           [1, [64, 128, 256]]           \nModel summary: 225 layers, 3011043 parameters, 3011027 gradients, 8.2 GFLOPs\n\nTransferred 319/355 items from pretrained weights\n\u001b[34m\u001b[1mDDP:\u001b[0m debug command /opt/conda/bin/python3.10 -m torch.distributed.run --nproc_per_node 2 --master_port 33327 /root/.config/Ultralytics/DDP/_temp_bfs2cmw_137367268111984.py\nUltralytics YOLOv8.2.50 🚀 Python-3.10
…
